code/weight_all_data_acc_098.pth (torch_old, 20754 bytes, 5 tensors)

fc1.weight f4 [64, 10]
0	0xbfb11b13	-1.3836387
1	0x3efd9af7	0.4953229
2	0x3e83010d	0.2558674
3	0xbf69fe6e	-0.91403854
4	0xc0a2bc22	-5.0854654
5	0xbf07e4da	-0.53083575
6	0x3eee1f1a	0.46508104
7	0xbf1082a8	-0.56449366
8	0x408ed91b	4.464002
9	0xbe80490d	-0.25055733
10	0xbdc4125b	-0.095738135
11	0xbd7e9ae0	-0.06215942
12	0xbe9aadca	-0.30210716
13	0xbe5674bf	-0.20942973
14	0xbe058660	-0.13039541
15	0x3c3e7d99	0.0116266245
16	0x3dfff2ba	0.12497468
17	0x3e422a59	0.18961467
18	0xbe5b9148	-0.21442139
19	0xbe0d0be0	-0.13774061
20	0x403aa126	2.9160857
21	0x3fce3687	1.611039
22	0x3f28357f	0.6570663
23	0x4005e897	2.0923212
24	0x3f940d21	1.1566507
25	0x401dbe21	2.4647295
26	0x3fe69391	1.8013784
27	0xbf03004f	-0.51172346
28	0xbf804d18	-1.0023527
29	0xc0526255	-3.2872517
30	0xbf7dbba5	-0.9911445
31	0x3e87de98	0.26537013
32	0xbf35c1e3	-0.7099897
33	0xbfb02e11	-1.3764058
34	0x3e0fe6bf	0.14052866
35	0xc01ebaa1	-2.480141
36	0xbfaf0005	-1.3671881
37	0x3f3daa0c	0.74087596
38	0xbf4accdb	-0.79218835
39	0x3e5ea54c	0.21742743
40	0x3c883d90	0.016630918
41	0xbe260408	-0.16212475
42	0x3d5b23c0	0.05350089
43	0xbe972c58	-0.2952602
44	0xbe69faba	-0.22849551
45	0xbe26f000	-0.1630249
46	0x3e4c4efe	0.19952008
47	0x3e3ddc66	0.18541107
48	0xbe0f9c80	-0.14024544
49	0xbc3af220	-0.011410266
50	0x3f7bba48	0.9833112
51	0xbd88fe56	-0.06689136
52	0x3f1a4b75	0.6027139
53	0x3fed2b4b	1.8528837
54	0x3ceabaac	0.028653465
55	0x3f9010ff	1.1255187
56	0x3d9481a4	0.072512895
57	0xbf3738bd	-0.7157095
58	0xbfb0e632	-1.382025
59	0x3eb70bd2	0.35751206
60	0x3e1f7758	0.1557287
61	0xbd0a7409	-0.033802066
62	0xbe5251f5	-0.20539077
63	0x3d7887d4	0.06067641
64	0x3f07eab6	0.53092515
65	0xbed9c95f	-0.42536446
66	0xbe94dd1f	-0.29074952
67	0xbd52e2ee	-0.05148595
68	0x3f0f9ca7	0.5609841
69	0x3fe61b4c	1.797708
70	0xbd1d3b88	-0.03838685
71	0x3b3cb10c	0.0028792052
72	0x3e66f5ee	0.22554752
73	0x3f01d2d1	0.50712305
74	0x3f5f9864	0.87341905
75	0x3eb3c3f9	0.35110453
76	0x3e214909	0.15750517
77	0xbf16fdd8	-0.58981085
78	0xbd8898b7	-0.06669753
79	0xbdac4510	-0.0841161
80	0xbe96e433	-0.29470977
81	0x3e8fdac7	0.280966
82	0x3e7637b6	0.2404469
83	0xbea18225	-0.31544605
84	0x3d727028	0.05918899
85	0xbd5a3378	-0.05327174
86	0xbd5526a8	-0.05203882
87	0xbe143ac5	-0.14475544
88	0x3df90d44	0.12160733
89	0xbe3fcc4f	-0.18730281
90	0x3d9351a7	0.07193308
91	0x3de30071	0.110840686
92	0x3e8b6d3c	0.27231777
93	0x3e5c8132	0.21533659
94	0xbe99d492	-0.3004499
95	0xbe3cf9ab	-0.18454616
96	0x3e7434aa	0.23848215
97	0x3e5a5ce0	0.21324492
98	0xbe38a042	-0.18029884
99	0xbea4853c	-0.321329
100	0x3fd3f841	1.6560136
101	0x3f1e5183	0.61843127
102	0xbfec0576	-1.8439167
103	0xc027d2f7	-2.6222513
104	0x4031e5ed	2.7796586
105	0xc061620e	-3.5216098
106	0xc0231c82	-2.548615
107	0xc0448568	-3.0706425
108	0xbfe608c3	-1.7971424
109	0x3f11629f	0.5679111
110	0xbf5fac7f	-0.87372583
111	0x3f6addfe	0.91744983
112	0xbe1839b7	-0.14865766
113	0x3e5ed95d	0.21762605
114	0x4066a0d5	3.6035664
115	0x3e7f91f9	0.24958028
116	0xbf3b02ed	-0.7305134
117	0x3fbe2735	1.4855715
118	0xbf539b9c	-0.82659316
119	0x3f8ac813	1.0842308
120	0x4073fd8a	3.8123498
121	0x3f2b32b2	0.6687423
122	0xbea115b4	-0.3146187
123	0xbfede4cc	-1.8585448
124	0xc09f6af1	-4.9818044
125	0xc005f2a6	-2.092935
126	0xbe99906f	-0.29993007
127	0xc02ad0a1	-2.6689837
128	0xbf21aa4d	-0.63150483
129	0x40024687	2.0355546
130	0x3ea8a2ca	0.32936698
131	0xbe101130	-0.14069057
132	0xbdb8fe8b	-0.09032925
133	0x3eb630a0	0.35583973
134	0x3f0263af	0.50933355
135	0xbecf149f	-0.4044542
136	0xbd992dee	-0.074794635
137	0x3e6566c3	0.22402482
138	0x3ebb5eab	0.36595663
139	0x3f270d5e	0.6525477
140	0x3e9e531c	0.30922782
141	0x3e4057ec	0.1878354
142	0x3e8a2bac	0.26986444
143	0xbdab998a	-0.083788946
144	0xbe93c941	-0.28864482
145	0xbe2086ae	-0.15676376
146	0x3e7108d1	0.2353852
147	0xbc3ed03a	-0.011646325
148	0xbe2bbc55	-0.16771062
149	0xbe9e29c3	-0.30891237
150	0xbe9785c3	-0.2959424
151	0xbe88a6f7	-0.26689884
152	0xbd835d34	-0.064142615
153	0x3e319554	0.1734212
154	0x3e2f11a4	0.17096573
155	0xbe9c265b	-0.30498013
156	0x3e49fdca	0.19725719
157	0xbe7d63da	-0.24745122
158	0xbd88eaa6	-0.06685381
159	0xbe034c8d	-0.1282217
160	0xbd797d10	-0.060910285
161	0xbd7e5110	-0.062089026
162	0xbe9149e8	-0.28376698
163	0xbe8bcc4c	-0.27304304
164	0xbd4aaed8	-0.04948315
165	0x3b860140	0.0040895045
166	0xbe131a1f	-0.14365433
167	0x3df3f6a0	0.11912274
168	0xbe91ba2a	-0.28462344
169	0xbcaed410	-0.021341354
170	0x401dc3df	2.46508
171	0xbeff91fe	-0.4991607
172	0x3f9279be	1.1443403
173	0x3f1ac40b	0.6045539
174	0x3eed35c3	0.4633008
175	0xbf9af4fe	-1.2106016
176	0x3f90c59d	1.1310307
177	0x3f31c2e4	0.69438004
178	0x400f3f9d	2.2382576
179	0xc037fbaa	-2.8747354
180	0x3d0ad5c4	0.03389527
181	0xbd879828	-0.066208184
182	0x3e6710f3	0.2256506
183	0x3db43093	0.08798327
184	0x3e1b430c	0.15162295
185	0x3de4538e	0.11148749
186	0xbd9bf2a3	-0.07614639
187	0xbd88d4bd	-0.066812016
188	0xbe8584f6	-0.26078004
189	0x3e2f63da	0.17127934
190	0x3f20395e	0.62587535
191	0x3e8d56d5	0.2760531
192	0xbe3112ff	-0.17292403
193	0x3d5c2f17	0.053755846
194	0xbe1f3d8a	-0.15550819
195	0xbf88d8b7	-1.0691136
196	0xbf400e7d	-0.7502211
197	0x3f7cbbdf	0.9872417
198	0xbf5c3493	-0.8601772
199	0xbf87cd1b	-1.0609468
200	0xbf86c60e	-1.0529191
201	0x3ec1d7e8	0.37860036
202	0xbecb4152	-0.39698273
203	0xbf2dc91b	-0.6788499
204	0xbf4934ac	-0.78595996
205	0xbf2ff078	-0.687263
206	0xbf329751	-0.6976214
207	0x400a0bef	2.1569784
208	0x3e74da8b	0.23911493
209	0xbf990408	-1.1954355
210	0xbb1a4580	-0.002353996
211	0xbd800680	-0.0625124
212	0x3d228340	0.03967595
213	0xbd93e246	-0.072208926
214	0xbb119e00	-0.002221942
215	0x3d254470	0.04034847
216	0xbe7d4a9f	-0.24735497
217	0xbe29b908	-0.1657449
218	0x3e82bd73	0.25535163
219	0xbe83657a	-0.25663358
220	0x3edb3f26	0.42821616
221	0x3e59725d	0.21235032
222	0x3ee23971	0.4418445
223	0x3f832d8a	1.0248272
224	0xbf8bd9e8	-1.0925875
225	0x3fb71379	1.4302818
226	0x3ef1a27c	0.47194278
227	0xbf89699d	-1.0735356
228	0xbc02884b	-0.007967065
229	0x3f6a0426	0.9141258
230	0x382584bc	3.9462684e-05
231	0x3e81b0a2	0.25330073
232	0x3d16752b	0.036732834
233	0x3e8e3380	0.27773666
234	0x3e456cc2	0.19279769
235	0xbe4d1605	-0.20027931
236	0x3e10b20a	0.14130417
237	0xbe69fc32	-0.22850111
238	0xbe0d0aa0	-0.13773584
239	0x3db8af05	0.09017757
240	0x3f32a4ae	0.6978253
241	0x3f23a504	0.6392367
242	0x3e83e1ba	0.25758153
243	0x3f4c4a98	0.7980132
244	0x3fe39af1	1.7781659
245	0x3f00da0f	0.5033273
246	0x3d52bb67	0.051448252
247	0xbf3a9a0a	-0.72891295
248	0xbf28e8d5	-0.65980273
249	0x3f90458e	1.1271226
250	0x3bf38a10	0.00743223
251	0xbc3edb8a	-0.011649022
252	0xbd84d19c	-0.06485292
253	0xbf873ada	-1.0564835
254	0xbf157df5	-0.5839532
255	0xbea270af	-0.31726596

fc1.bias f4 [64]
0	0xbf4bd954	-0.7962849
1	0x3d386af2	0.045023866
2	0xbef55f3b	-0.47924218
3	0x3f1f9529	0.62336975
4	0xbe51f263	-0.2050262
5	0x3f98c2db	1.1934465
6	0xbf1243bf	-0.5713462
7	0x3e4cdfc4	0.20007235
8	0xbe80ccb5	-0.2515618
9	0xbe00338f	-0.12519668
10	0x40094dcd	2.1453736
11	0xbf8e06bc	-1.1095805
12	0x3f1317b3	0.5745804
13	0xbf763d58	-0.96187353
14	0xbe8efee0	-0.2792883
15	0xbe1203f1	-0.14259316
16	0x3d516178	0.051118344
17	0xbf775b79	-0.9662395
18	0xbe1b1601	-0.15145113
19	0x3e55b821	0.20871021
20	0xbee22f86	-0.44176883
21	0xbd8c7290	-0.068577886
22	0x3ebeabb1	0.37240365
23	0xbe81549a	-0.25259858
24	0xbeca2cf4	-0.39487422
25	0x40422fa5	3.034158
26	0xbf0548f3	-0.52064437
27	0x3e405677	0.18782984
28	0xbead277c	-0.33819187
29	0x40861a23	4.1906905
30	0xbe9c9e7e	-0.3058967
31	0xbedc009a	-0.4296921
32	0xc0441765	-3.063928
33	0xbf7478d0	-0.95496845
34	0x4011a497	2.2756708
35	0x3f9e5e6a	1.2372563
36	0xbd406b6f	-0.046977457
37	0xbcdf8252	-0.027283821
38	0xbdd38b91	-0.103293546
39	0xbdb9cdf9	-0.09072489
40	0xbe3f976b	-0.18710105
41	0xbe5799f8	-0.21054828
42	0xbd0c2930	-0.034218967
43	0xbc9b0eff	-0.01892805
44	0x3c8bf9cb	0.017086884
45	0x3f63d302	0.8899385
46	0xbd4d4e18	-0.050123304
47	0xbfecdb09	-1.8504344
48	0x3edeeaf5	0.43538633
49	0xbe10c019	-0.1413578
50	0xbedd9576	-0.43278092
51	0x3fd15cd6	1.6356456
52	0x3f74b7aa	0.9559275
53	0x3f616015	0.88037235
54	0x3f73d063	0.9523985
55	0xbe973b01	-0.29537204
56	0x3ffbcffe	1.9672849
57	0xc0112cb2	-2.268353
58	0x3f6a2c76	0.9147409
59	0xbf103968	-0.56337595
60	0xbe178eec	-0.14800614
61	0x3f1091b9	0.56472355
62	0xbe90d0fd	-0.28284445
63	0xbedf0689	-0.43559673

fc2.weight f4 [64, 64]
0	0xbf219259	-0.63113934
1	0xbc5c690a	-0.013452778
2	0xbdd53417	-0.10410326
3	0xbe1996fa	-0.14998999
4	0xbd74491c	-0.059640035
5	0x3f0dd952	0.5540973
6	0x3dbeb895	0.0931255
7	0x3e258bf2	0.16166666
8	0xbddeecba	-0.10884996
9	0xbd0c20fe	-0.03421115
10	0xbed93d26	-0.42429465
11	0x3eb961b0	0.36207342
12	0x3dd8b518	0.10581416
13	0x3e36c7f4	0.17849714
14	0x3dfdb72d	0.12388454
15	0x3dda7d48	0.10668427
16	0x3dcf9ed2	0.101377144
17	0x3f045199	0.5168701
18	0xbca3ec06	-0.020010006
19	0x3d7c18d8	0.06154713
20	0xbe9ed339	-0.31020525
21	0x3cf2e668	0.029650882
22	0x3edfdd8a	0.43723708
23	0xbdc862a5	-0.0978444
24	0xbdc95786	-0.09831147
25	0xbec1da86	-0.37862033
26	0xbbd7a27c	-0.006580649
27	0x3dae3a25	0.08507184
28	0x3dadf3ab	0.084937416
29	0x3f7f6e61	0.997778
30	0xbdb2f3cc	-0.08737907
31	0x3e8411e0	0.25794888
32	0x3fb94f56	1.4477336
33	0x3cc194da	0.023630548
34	0x3f1daa1a	0.6158768
35	0x3d8ea6ab	0.06965383
36	0xbdcafc9a	-0.09911461
37	0xbe590b21	-0.21195652
38	0x3e7bb254	0.24579746
39	0xbd0ead6b	-0.034833353
40	0x3e5f2cdc	0.21794456
41	0x3ddbfc7a	0.107415155
42	0x3da9cb78	0.08290762
43	0xbd85e6dd	-0.06538174
44	0x3e864bb9	0.26229647
45	0x3e89b52d	0.2689604
46	0xbdcddb00	-0.100515366
47	0x3ea1006e	0.3144564
48	0xbf3d80be	-0.7402457
49	0xbd07d767	-0.033164408
50	0x3e37ee84	0.1796208
51	0xbe3dc131	-0.18530728
52	0x3f20ee8e	0.62864006
53	0x3e3d370b	0.18478028
54	0xbe5c6e80	-0.21526527
55	0xbdb1d4c4	-0.0868316
56	0xbeba01d7	-0.3632953
57	0xbeb02397	-0.34402153
58	0xbea2b4b0	-0.3177848
59	0x3eae088a	0.3399089
60	0x3d382eac	0.044966385
61	0x3d8976b7	0.06712096
62	0xbcdc93c8	-0.026925936
63	0xbdedf4e1	-0.116189726
64	0x3fa0bb3e	1.2557142
65	0xbd1579ce	-0.036493115
66	0xbebdfc9b	-0.37106785
67	0xbdc39ac2	-0.09551002
68	0x3d8c56b8	0.06852478
69	0x3f014421	0.5049458
70	0x3dd359d7	0.1031987
71	0x3e0c7680	0.13717079
72	0x3dfef9ec	0.124500126
73	0x3c9c1ceb	0.019056758
74	0x3f6e1491	0.9300013
75	0x3d00d6c9	0.031454835
76	0xbfb99105	-1.4497381
77	0x3e1b1755	0.15145619
78	0x3d4a0ff0	0.049331605
79	0x3bec4ba0	0.0072111636
80	0xbd8dc31c	-0.0692198
81	0xbf06b143	-0.5261423
82	0xbd15a89b	-0.036537748
83	0x3dcc65cb	0.09980353
84	0x3eee95e3	0.4659873
85	0x3cb51a80	0.022107363
86	0xbe92b527	-0.28653833
87	0x3d2adc47	0.04171398
88	0x3e102600	0.14076996
89	0xbe843e43	-0.25828752
90	0x3ee1a3f4	0.440704
91	0xbd723c0b	-0.059139293
92	0xbcad824d	-0.021180296
93	0xbef435b0	-0.4769721
94	0xbca4ea40	-0.02013123
95	0x3e3ddda8	0.18541586
96	0x3fade8c2	1.3586657
97	0xbe209d7c	-0.15685076
98	0x3efde744	0.49590504
99	0x3e16bb2a	0.14719835
100	0x39d1db0f	0.00040026798
101	0x3c9c04be	0.01904523
102	0x3f0da425	0.5532859
103	0xbd939ab4	-0.07207242
104	0x3e8936d7	0.26799652
105	0x3c71ea50	0.014765337
106	0xbd700d54	-0.05860646
107	0xbd306be0	-0.043071628
108	0x3e8236ed	0.2543253
109	0x3ec6bc4d	0.38815537
110	0x3ca8f4a0	0.020624459
111	0x3e050bbc	0.12992758
112	0xbf093b7e	-0.536064
113	0xbe427301	-0.18989183
114	0x3e0b7a9a	0.13620988
115	0xbe0c74d2	-0.13716438
116	0xbce158da	-0.027508188
117	0xbe4b7c9b	-0.19871752
118	0x3e5ffc72	0.21873644
119	0xbd12726c	-0.035753652
120	0xbf0facce	-0.56123054
121	0x3f2157a9	0.63024384
122	0xbf22e4cc	-0.63630366
123	0x3ceea5ca	0.029131789
124	0x3cf00320	0.029298365
125	0x3cf37b86	0.029721987
126	0x3da2469a	0.079236224
127	0x3e82ca51	0.2554498
128	0xbe91aea3	-0.2845355
129	0xbd3e4f74	-0.04646249
130	0xbe22bd96	-0.15892634
131	0xbe1ebee3	-0.15502505
132	0x3c830768	0.015994743
133	0x3e7e87ca	0.24856487
134	0x3c1acfa1	0.009448917
135	0x3e200788	0.15627873
136	0xbcb92810	-0.022602111
137	0x3e00016f	0.12500547
138	0xbe69e551	-0.22841384
139	0x3e7a5ef8	0.2445029
140	0x3c656eeb	0.014003496
141	0x3d555d3d	0.052090872
142	0x3d9ae458	0.07563084
143	0x3dbce932	0.09224166
144	0x3bbc7dc0	0.0057522953
145	0x3ec4c1df	0.38429162
146	0x3b952f63	0.004552768
147	0x3e1c3990	0.15256333
148	0xbe7aebc8	-0.24504006
149	0xbd8814f6	-0.06644623
150	0x3e80b1b3	0.25135574
151	0xbddbc2a9	-0.10730488
152	0xbd953d00	-0.072870255
153	0xbe672804	-0.22573858
154	0x3d197b58	0.037471145
155	0xbdfe9c9f	-0.12432217
156	0x3e0f16ee	0.1397359
157	0x3f596b07	0.84928936
158	0x3ccf3240	0.025292516
159	0x3d818d3c	0.063257664
160	0x3f6978d0	0.9119997
161	0xbb3cf803	-0.002883435
162	0x3e9ec416	0.31008977
163	0x3d236e50	0.039900124
164	0xbc8cfa43	-0.017209178
165	0xbe1965cc	-0.14980239
166	0x3de3c84a	0.111221865
167	0xbcbeaee3	-0.023276752
168	0xbce37a2d	-0.027768219
169	0x3bd1bb60	0.0064005107
170	0xbb72a9c0	-0.0037027448
171	0x3c9b060b	0.01892378
172	0x3e728874	0.23684865
173	0x3ea3831b	0.31935963
174	0xbd97e15c	-0.07416031
175	0x3e1ee1b9	0.15515794
176	0xbf0c79b7	-0.5487322
177	0xbe5ce593	-0.2157195
178	0xbb29ff93	-0.0025939688
179	0xbd1bbcde	-0.038021915
180	0x3ee25eae	0.4421286
181	0x3df67735	0.12034456
182	0xbcdd868c	-0.027041696
183	0xbdcb62fa	-0.09930988
184	0xbe7d65c0	-0.24745846
185	0xbe18accd	-0.14909668
186	0xbe3e58b3	-0.18588524
187	0x3e5d0696	0.21584544
188	0x3d0692c4	0.03285481
189	0x3e34c227	0.17652188
190	0xbd5b55a0	-0.053548455
191	0xbd34c5c8	-0.04413393
192	0xbf1ec21e	-0.6201495
193	0xbc0225e8	-0.007943608
194	0xbecc90b7	-0.3995416
195	0xbe0d06df	-0.13772152
196	0x3dd6390e	0.10460101
197	0xbe2b14cd	-0.16707154
198	0x3f2ddb7f	0.6791305
199	0x3da63963	0.081164144
200	0x3db3fbe0	0.08788276
201	0xbc85c6e4	-0.01633019
202	0xbea99b83	-0.3312646
203	0xbe86dff6	-0.26342744
204	0xbe831125	-0.25599018
205	0xbe174ab7	-0.14774595
206	0x3d82aa40	0.06380129
207	0x3d33b9d8	0.043878406
208	0x3ca53970	0.02016899
209	0xbe33c0b7	-0.17553984
210	0x3de0e214	0.10980621
211	0xbecff979	-0.4062002
212	0xbe186dcb	-0.14885633
213	0xbdb9d352	-0.09073509
214	0xbd6e0f6e	-0.058120184
215	0x3c8a6c31	0.016897293
216	0xbe10301b	-0.14080851
217	0xbfe01f52	-1.7509558
218	0xbd95f3bb	-0.073218785
219	0x3d9f1999	0.07768554
220	0x3d38621e	0.045015447
221	0x3e04f13e	0.12982652
222	0x3d425900	0.04744816
223	0xbdff7ea6	-0.12475328
224	0x3fb962dc	1.4483294
225	0x3ecca738	0.39971328
226	0xbf39533e	-0.7239264
227	0xbf41aed9	-0.7565742
228	0xbdf677a4	-0.120345384
229	0x3e8680a6	0.26270026
230	0x3f195133	0.59889525
231	0x3d9cd898	0.076584995
232	0x3e907a87	0.2821848
233	0xbdd79f18	-0.105283916
234	0x3db94bda	0.09047671
235	0xbdf1b3a0	-0.11801839
236	0x3c1f6a27	0.009729899
237	0xbf34e3f8	-0.7066035
238	0xbd4b5d34	-0.049649432
239	0xbe51f143	-0.2050219
240	0x3e4496ca	0.19198146
241	0x3f016fb8	0.50561094
242	0xbe55a612	-0.20864132
243	0xbdf19cb8	-0.1179747
244	0xbea75919	-0.32685164
245	0xbecbbfb1	-0.39794686
246	0xbe00828e	-0.12549803
247	0xbd4a06b0	-0.049322784
248	0xbf17b508	-0.59260607
249	0xbde0f31b	-0.10983869
250	0x3e081eb1	0.13292958
251	0x3f4fe799	0.81212765
252	0x3c886680	0.016650438
253	0x3dbb556f	0.091471545
254	0x3d2a57c8	0.04158762
255	0xbea2fe0d	-0.3183445

fc2.bias f4 [64]
0	0x3f4c5ce5	0.79829246
1	0x3dbe5cde	0.09295057
2	0x3edf8d38	0.4366243
3	0xbf165021	-0.58716017
4	0xbe2d31d4	-0.16913539
5	0x3ee6f02e	0.45105118
6	0x3df91e34	0.12163964
7	0xbd775e4e	-0.06039267
8	0x3e999f4d	0.3000435
9	0xbe3aa5b6	-0.18227276
10	0xbe829d8b	-0.2551082
11	0xbd3a4fd3	-0.045486283
12	0x3f373660	0.71567345
13	0xbd8eddb4	-0.0697588
14	0x3dcc477f	0.09974574
15	0x3e28fae0	0.16501951
16	0x3dbb2643	0.09138157
17	0x3e74873b	0.23879711
18	0x3e960e2b	0.29307684
19	0xbd96f359	-0.07370634
20	0xbde367fe	-0.11103819
21	0x3f8d367d	1.1032254
22	0x3f554b6e	0.8331822
23	0xbec90fde	-0.39269918
24	0x3e62bf06	0.22143182
25	0xbe8f82fd	-0.28029624
26	0x3cd2c5d1	0.025729092
27	0x3e988564	0.2978927
28	0xbe02591e	-0.12729308
29	0xbeda6079	-0.42651728
30	0xbed550bf	-0.41663167
31	0xbde27c1b	-0.110588275
32	0x3e9c9c26	0.30587882
33	0xbdd47e8d	-0.103757
34	0x3e0c1624	0.13680321
35	0x3d78e69a	0.060766794
36	0xbe9f865d	-0.311572
37	0xbe0770a6	-0.13226566
38	0x3e811dba	0.25217992
39	0x3f835116	1.025912
40	0x3c3c01b2	0.011475014
41	0xbde9340d	-0.11386881
42	0xbd449e16	-0.048002325
43	0x3dfc67e7	0.12324505
44	0xbdd21af2	-0.10259046
45	0x3e1c3430	0.15254283
46	0x3ea09154	0.31360877
47	0xbea68191	-0.32520726
48	0xbf64eafe	-0.8942107
49	0xbed065c4	-0.4070264
50	0x3e9323c9	0.2873824
51	0xbca968c6	-0.020679843
52	0x3e21c5b8	0.1579808
53	0x3f6257d6	0.88415277
54	0xbef7df9d	-0.4841279
55	0xbd86d197	-0.06582945
56	0x3d17012b	0.03686635
57	0x3f3c6f6f	0.73607534
58	0xbf42e187	-0.7612538
59	0x3ee8f1d7	0.4549701
60	0xbd33c9b4	-0.04389353
61	0x3e4ef727	0.20211469
62	0x3f154cd8	0.5832038
63	0xbe6cba60	-0.23117971

fc3.weight f4 [1, 64]
0	0xbff969f0	-1.9485455
1	0xc01285fa	-2.2894273
2	0xbfae122e	-1.3599298
3	0x4052b975	3.2925694
4	0x3d9c2255	0.07623736
5	0xc032815e	-2.789146
6	0x409b5e00	4.8552246
7	0x3dab07f2	0.08351125
8	0xbf89fcff	-1.0780333
9	0x3f161314	0.5862286
10	0xc0bdad64	-5.927416
11	0x3d0a8ac0	0.03382373
12	0x402614b4	2.5950136
13	0xbe875ad8	-0.26436496
14	0xc0e25c74	-7.073786
15	0x3f232e40	0.63742447
16	0xbfed3f6f	-1.8534983
17	0xbe877b58	-0.2646129
18	0xbea306b1	-0.31841043
19	0xbdcbbdcc	-0.0994831
20	0x40da0fb4	6.814417
21	0x40814a6c	4.0403347
22	0xc025a1c6	-2.5879989
23	0x3fca4cd4	1.5804696
24	0xc07bbb09	-3.9332907
25	0x4087b7bb	4.241178
26	0xbe78ff8a	-0.2431623
27	0xbf25ae46	-0.64719045
28	0xbe32cac2	-0.17460158
29	0x40984be4	4.759264
30	0xc0721768	-3.7826786
31	0x40b06d59	5.513348
32	0x3fadc5e5	1.3576018
33	0xbd7a68b5	-0.061135013
34	0xbf5e5aeb	-0.8685748
35	0xc00e0d19	-2.2195494
36	0x3f7ac912	0.9796306
37	0xbe1f24af	-0.15541337
38	0x3f5f4279	0.87210804
39	0xc06f3ad2	-3.737965
40	0xc06e2545	-3.7210248
41	0xbe284dba	-0.164359
42	0xbe9eae9d	-0.30992594
43	0x3d85e0a8	0.065369904
44	0x3de80e5f	0.11330866
45	0xc062b7ae	-3.542461
46	0xbec9f656	-0.39445752
47	0xc084e758	-4.15324
48	0xc0e79d2e	-7.237937
49	0xc079c932	-3.902905
50	0xbecb6630	-0.397264
51	0xc082d145	-4.0880456
52	0xc06c2e61	-3.6903307
53	0xc0a08235	-5.0158944
54	0x4004a953	2.0728347
55	0x3d21a342	0.039462335
56	0x3e99df89	0.30053356
57	0xc092324b	-4.5686393
58	0x40896324	4.293352
59	0xc0875c32	-4.2300043
60	0x3d82e712	0.063917294
61	0x3f52b08c	0.8230064
62	0x3fe2b898	1.7712584
63	0xbfe66c0a	-1.8001721
